Output/attention.pth (torch, 3363 bytes, 3 tensors)

attn_weights f4 [51, 1]
0	0xc13d125c	-11.816982
1	0x3ffe2644	1.9855428
2	0x3eb55f19	0.35424116
3	0x3fc7dd8c	1.5614486
4	0x3f75cc31	0.96014696
5	0xbf5b971c	-0.8577745
6	0x404022ef	3.0021322
7	0xbf8288c5	-1.0197989
8	0xbfeaffc6	-1.8359306
9	0x3fe7777b	1.8083338
10	0x400b4eeb	2.1766918
11	0xbfa572c7	-1.2925652
12	0x405af2ea	3.4210763
13	0xbf30adc4	-0.69015145
14	0xbfda6793	-1.7062858
15	0x3e5935c4	0.21211916
16	0x3f92d00c	1.1469741
17	0xbe87224b	-0.2639335
18	0xc0bdc5a2	-5.930375
19	0xc014e1a7	-2.3262727
20	0xbfa46cfa	-1.2845757
21	0xbe954d90	-0.29160738
22	0xbf717604	-0.943207
23	0xc078d8af	-3.8882253
24	0x4047648f	3.1155126
25	0xbfe2aab8	-1.7708349
26	0xc00099d5	-2.0093892
27	0xbf4775da	-0.779142
28	0x3fd2989f	1.6452826
29	0xbf93ff42	-1.1562274
30	0xbf236f53	-0.6384174
31	0xbf49ba00	-0.7879944
32	0x3f60fe95	0.8788846
33	0x40970823	4.7197433
34	0x4009f3dd	2.1555092
35	0x400da626	2.213266
36	0x409c0d5e	4.8766317
37	0xc0132c52	-2.29958
38	0x3cf1c92e	0.029514875
39	0x3fe06dd1	1.7533513
40	0x403860c3	2.8809059
41	0x3fbb61a3	1.4639171
42	0xc03347f3	-2.8012664
43	0x4061a47a	3.5256639
44	0xc0866224	-4.19948
45	0xbedb1191	-0.4278684
46	0xc069d9c4	-3.6539164
47	0xbfaeae3f	-1.3646926
48	0x402f0dc8	2.7352161
49	0x3fb36bba	1.401725
50	0x40155a14	2.333623

linear.weight f4 [9, 51]
0	0xbdfe1e8e	-0.124081716
1	0xc0077022	-2.116219
2	0xbf05900d	-0.5217293
3	0x3e41b719	0.18917502
4	0x403e2d92	2.9715314
5	0x3fa31d8f	1.2743396
6	0x3dbe9f4b	0.093077265
7	0x3dbe7e4b	0.09301432
8	0x3fb3e83a	1.4055245
9	0x3f8e5f20	1.112278
10	0xbeb2e5f5	-0.34941068
11	0xc00eacca	-2.2292962
12	0x403607b2	2.8442197
13	0x3f698c08	0.91229296
14	0x3e419e4b	0.1890804
15	0xbed419a4	-0.41425812
16	0x3dcb783d	0.09935043
17	0xbf822fd2	-1.0170844
18	0xbf3ca2c8	-0.73685884
19	0xc037874c	-2.8676329
20	0x3fa45269	1.283765
21	0x3f019025	0.5061057
22	0xbfbb90f8	-1.4653616
23	0xc0061553	-2.0950515
24	0x3fd61356	1.6724651
25	0x3e3fea49	0.18741716
26	0x3fa9669e	1.3234441
27	0xbf341665	-0.7034667
28	0x3fe6ea3f	1.8040236
29	0xbf8dd13e	-1.1079481
30	0x3f9b7c8c	1.2147384
31	0x3e7fc5eb	0.24977843
32	0x4031ae38	2.7762585
33	0xbf8858de	-1.065212
34	0xbf221ff3	-0.6333
35	0xbf9e1371	-1.2349683
36	0xbfd77d12	-1.6835043
37	0x3f6d6f6b	0.92748135
38	0x3fcc9909	1.5984203
39	0xbff21d64	-1.8915219
40	0xbf13ab9c	-0.5768373
41	0xbec35981	-0.38154224
42	0x3f9abcad	1.2088829
43	0xbdc51302	-0.09622766
44	0xbed708c7	-0.41998884
45	0x3fe1ba62	1.7635005
46	0xc0043cc2	-2.0662084
47	0x3ea6337f	0.32461163
48	0xbf6b8bf6	-0.9201044
49	0xc00472d9	-2.0695097
50	0xbfc5fff3	-1.5468735
51	0xbf0be39e	-0.5464419
52	0xbf9537cf	-1.1657656
53	0xbf5fce11	-0.8742381
54	0xbfe2baa1	-1.7713205
55	0x3f609d9c	0.8774049
56	0xbf6d84c1	-0.9278069
57	0x3f25db5b	0.64787835
58	0xc009ee49	-2.1551688
59	0x3f527dad	0.82223016
60	0xbf786c4e	-0.9704026
61	0x3ee349ae	0.4439215
62	0x3ecd6bc2	0.40121275
63	0xbfb9b0b2	-1.4507048
64	0xc00c6899	-2.1938841
65	0x3ec264fa	0.37967664
66	0xbf712d93	-0.94210166
67	0xbd700599	-0.05859909
68	0xbeea7a6b	-0.45796522
69	0x3f8b23cb	1.0870298
70	0x4031d156	2.7784019
71	0x3ee2cb9c	0.44295967
72	0xbf0af9ba	-0.542873
73	0xbf402b2d	-0.7506588
74	0x40165e51	2.3495066
75	0x3fcd6a4c	1.6048064
76	0xbe2e978e	-0.17050001
77	0x3f53c00d	0.8271492
78	0xbfe18e80	-1.7621613
79	0xbfa4b354	-1.2867227
80	0x3fa732ed	1.3062416
81	0x3f555cc5	0.8334468
82	0x3e6e42cc	0.23267668
83	0xbfbc33c9	-1.4703304
84	0xbf10e4be	-0.5659903
85	0xbf8caa6b	-1.0989507
86	0x3e041ebd	0.1290235
87	0x3eb7e127	0.35913965
88	0x401bada8	2.4324741
89	0xbf90ed51	-1.1322423
90	0x3ebcfcca	0.36911613
91	0xbfbf07d9	-1.492427
92	0xbdf7ff60	-0.12109256
93	0x404f7b23	3.2418907
94	0x40499845	3.1499188
95	0xbf8ddcf4	-1.1083055
96	0xbf8bab88	-1.0911722
97	0x40076977	2.115812
98	0x3fa2009a	1.2656434
99	0x3f858b07	1.0433053
100	0x3f4d1959	0.801168
101	0xbfdbb1a9	-1.7163593
102	0x3ebcedcf	0.36900184
103	0x3c0315c4	0.008000795
104	0x3fcb90d7	1.5903577
105	0x3e14c157	0.14526878
106	0xbf2c6aa7	-0.6735024
107	0x3e1aaf75	0.15105994
108	0x3e58cb88	0.21171391
109	0xc0027a5e	-2.0387187
110	0x3eefffc6	0.46874827
111	0xbf5da0a8	-0.86573267
112	0x408cb9f6	4.3977003
113	0x3fdbc483	1.7169346
114	0xc0126e2a	-2.2879739
115	0xbe1e906a	-0.15484777
116	0x3ec7657d	0.38944617
117	0x400003fd	2.0002434
118	0x3eb0a169	0.34498146
119	0x3f83d50c	1.0299392
120	0x3e3a1254	0.18171054
121	0x3fc96fd9	1.5737258
122	0xc034f905	-2.827699
123	0xbf919032	-1.137213
124	0x3efe9c5a	0.49728662
125	0x3fc56dc0	1.5424118
126	0xc084a70a	-4.1453905
127	0xbef31157	-0.47474167
128	0xc06b09e8	-3.6724796
129	0x3fabdc14	1.3426538
130	0xbf50ddde	-0.8158854
131	0xc09232a8	-4.5686836
132	0x3fdb645d	1.7140003
133	0xbfb75987	-1.4324197
134	0xbf99b4e6	-1.2008331
135	0x3fdfb3be	1.7476728
136	0x3fa8b736	1.3180912
137	0xc034589e	-2.8179088
138	0x40be8656	5.9538984
139	0xbfe8018c	-1.8125472
140	0xc0ab1b25	-5.3470635
141	0xbfc528d6	-1.5403087
142	0x40b37320	5.6078033
143	0x400ff7fb	2.2495105
144	0xc085884c	-4.172888
145	0xbed48524	-0.41507828
146	0xbd9eca8b	-0.07753476
147	0xc01d0e07	-2.4539812
148	0x409b976c	4.862234
149	0x3f39e1b7	0.7261004
150	0xc031e9c4	-2.779893
151	0x3fbaf1c9	1.4605037
152	0x407b3d84	3.9256296
153	0xbd14e3cf	-0.036350068
154	0xbdd40ca7	-0.10353976
155	0xbe6b6128	-0.22986281
156	0xbfe4f0c1	-1.7885972
157	0xc034992e	-2.8218493
158	0xc0187e6f	-2.382717
159	0xbf5a7a1c	-0.85342574
160	0x40180605	2.3753674
161	0x3ed48ba2	0.4151278
162	0xbe85c8b0	-0.26129675
163	0x3f104438	0.56354094
164	0x4007e7d4	2.1235247
165	0xc03d2ead	-2.9559739
166	0xbf543534	-0.8289368
167	0xbf97e841	-1.1867753
168	0x3e7cc82f	0.24685739
169	0xbeb6e2a7	-0.35719797
170	0xbec67931	-0.38764337
171	0x40736990	3.803318
172	0x3f917189	1.1362773
173	0x3e085327	0.1331297
174	0x3f11dcf4	0.5697777
175	0x3f0944cb	0.53620595
176	0xbca96bc5	-0.020681271
177	0xbdbce6bd	-0.09223697
178	0x3fdc9bc7	1.723504
179	0x3fbc3b6f	1.4705638
180	0x3faae9d4	1.3352609
181	0xbfef3b9e	-1.8690069
182	0xbfe0becb	-1.7558225
183	0xc004b0de	-2.073295
184	0x3f4bb86a	0.7957827
185	0xbf58616e	-0.84523666
186	0x3cabfb4d	0.020993853
187	0x3fa60e37	1.2973088
188	0x3fb473eb	1.4097875
189	0x3e22f726	0.15914592
190	0xc00e5341	-2.2238314
191	0x3f9c7e53	1.2226051
192	0xbfc36ea7	-1.5268143
193	0xbf4852cd	-0.78251344
194	0xbf71aa26	-0.9440025
195	0x3ff019fd	1.8757931
196	0xbfe726d9	-1.805873
197	0xbf33def4	-0.70262074
198	0x3f245cfb	0.64204377
199	0x3f0b1464	0.5432799
200	0xbcf09949	-0.029369967
201	0x3fa822a7	1.3135575
202	0x3f1b253c	0.6060369
203	0x3e9774b6	0.2958123
204	0x3e24bf46	0.1608859
205	0x3f4765ef	0.77889913
206	0xbe7afeb7	-0.24511229
207	0x40197b51	2.3981516
208	0xbf083b2b	-0.53215283
209	0x3ea4b807	0.32171652
210	0xc001607c	-2.021514
211	0x4083b636	4.1159925
212	0xc020e551	-2.5139964
213	0x404cf6cd	3.2025635
214	0xbfb2fbf0	-1.3983135
215	0xbf8777e1	-1.0583459
216	0x40255962	2.5835805
217	0x40443c52	3.0661817
218	0x3fcf86f8	1.6213064
219	0x3ef67283	0.4813424
220	0x3e0d96bc	0.13827032
221	0x3f76aa7c	0.9635389
222	0xba80f303	-0.0009838048
223	0xc0904fbc	-4.509733
224	0x3fb0185d	1.3757435
225	0x3f48229e	0.7817782
226	0x3fdaa399	1.7081176
227	0xbfaa6440	-1.3311844
228	0x4033d746	2.8100142
229	0x3f540819	0.82824856
230	0x3eb8e5e7	0.36112902
231	0x403d8f4a	2.9618707
232	0xbf5f84b0	-0.8731184
233	0x4000ce95	2.0126088
234	0xc01997db	-2.3998935
235	0xbe872bf9	-0.26400736
236	0xbfbdbd4c	-1.4823394
237	0xbf4a15cd	-0.78939515
238	0x3fcd9f2b	1.6064199
239	0xc07f271b	-3.9867618
240	0xc03e4eef	-2.9735677
241	0xc040731c	-3.0070257
242	0x409146d9	4.5398984
243	0xbebd9cdc	-0.37033737
244	0x3cbcb197	0.0230339
245	0x3d34465d	0.044012416
246	0xbd2c656b	-0.042088907
247	0xc0548a6b	-3.3209484
248	0xbfabf3e6	-1.3433807
249	0x3fccfe0d	1.601503
250	0xc004b9e2	-2.0738454
251	0xbf492a13	-0.78579825
252	0xbdb423c9	-0.08795888
253	0xc0155507	-2.3333147
254	0xc064dc98	-3.575964
255	0x3f388d9e	0.7209109

linear.bias f4 [9]
0	0xbdcddddc	-0.10052082
1	0xbf17673f	-0.59141916
2	0x3e54804b	0.20752065
3	0xbc7259c6	-0.0147919115
4	0x3e602a24	0.21891075
5	0x3f53aa49	0.8268171
6	0xbfdcd06d	-1.7251107
7	0xbf608939	-0.87709385
8	0xbf0a7488	-0.5408406
